Moons/KAN/symbolic_KAN_model.ckpt (torch, 342122 bytes, 13 tensors)

biases.0.weight f4 [1, 2]
0	0x3fdcaa95	1.7239558
1	0x3f572ff7	0.84057564

act_fun.0.grid f8 [4, 4]
0	0xbff8d94441a4cfa3	-1.553043610020702
1	0xbfc4ea6189d5a0f8	-0.16340274076652128
2	0x3ff39eabdf2f6765	1.2262381284876593
3	0x4004ed51f7ccc174	2.6158789977418397
4	0xbff3fcc63d9ec5ff	-1.249212494567814
5	0xbfd1879f3bc23e14	-0.2739027103025091
6	0x3fe671ed3f7b4dea	0.7014070739627958
7	0x3ffad3d50e6bdd6f	1.6767168582281007
8	0xbff8d94441a4cfa3	-1.553043610020702
9	0xbfc4ea6189d5a0f8	-0.16340274076652128
10	0x3ff39eabdf2f6765	1.2262381284876593
11	0x4004ed51f7ccc174	2.6158789977418397
12	0xbff3fcc63d9ec5ff	-1.249212494567814
13	0xbfd1879f3bc23e14	-0.2739027103025091
14	0x3fe671ed3f7b4dea	0.7014070739627958
15	0x3ffad3d50e6bdd6f	1.6767168582281007

act_fun.0.scale_base f4 [4]
0	0x3f5b18c9	0.85584694
1	0x3e50c504	0.20387655
2	0x3e49c505	0.19704063
3	0x3f9d9af5	1.2312914

act_fun.0.scale_sp f4 [4]
0	0x400566d7	2.0844018
1	0x3fcd14c2	1.602196
2	0x3fe945d0	1.822443
3	0x3f505149	0.8137403

act_fun.0.mask f4 [4]
0	0x00000000	0.0
1	0x00000000	0.0
2	0x00000000	0.0
3	0x00000000	0.0

act_fun.1.grid f8 [2, 4]
0	0xbff043807029e9f5	-1.0164799100299409
1	0xbf9d4242ad88c100	-0.02857307609718962
2	0x3feeb2dcb57b47da	0.9593337578355616
3	0x3fff27e5c0316adf	1.947240591768313
4	0xbfe5085a519d1c46	-0.6572696298616243
5	0x3fecd57428124a7e	0.901056364311742
6	0x4003acd0a8706c50	2.459382358485108
7	0x40101222236e2301	4.017708352658475

act_fun.1.scale_base f4 [2]
0	0x3e02abf0	0.12760901
1	0xbe967232	-0.29384

act_fun.1.scale_sp f4 [2]
0	0x3e903f59	0.2817333
1	0x3ecc12f2	0.39858204

act_fun.1.mask f4 [2]
0	0x00000000	0.0
1	0x00000000	0.0

symbolic_fun.0.mask f4 [2, 2]
0	0x3f800000	1.0
1	0x3f800000	1.0
2	0x3f800000	1.0
3	0x3f800000	1.0

symbolic_fun.0.affine f4 [2, 2, 4]
0	0xbe2ee252	-0.17078522
1	0x40f25209	7.572514
2	0xc0fef859	-7.967816
3	0x405eaed9	3.4794219
4	0xbf9954d9	-1.1979018
5	0x3f23820e	0.6387032
6	0xbf346a03	-0.7047426
7	0x40270ed4	2.61028
8	0xbff524b7	-1.915183
9	0xc0f77da6	-7.734088
10	0x3fa81ef3	1.3134445
11	0x3d7ff635	0.06249066
12	0xbf4841d2	-0.78225434
13	0xbe0ebf01	-0.1394005
14	0xc04ceac5	-3.2018292
15	0x403fd00a	2.9970727

symbolic_fun.1.mask f4 [1, 2]
0	0x3f800000	1.0
1	0x3f800000	1.0

symbolic_fun.1.affine f4 [1, 2, 4]
0	0xc100f994	-8.060932
1	0x4017bf7d	2.3710625
2	0xbf02589a	-0.50916445
3	0x3ea23134	0.31678164
4	0xbf9f2642	-1.243355
5	0xbedacca9	-0.42734268
6	0x3f865c73	1.0496963
7	0xbf2f1aec	-0.68400455
