Mushroom/KAN/symbolic_KAN_model.ckpt (torch, 29402 bytes, 16 tensors)

biases.0.weight f4 [1, 24]
00000000: 379d b9be 751b ce3c c2bf c6be 2f8f 313d
00000010: b233 0ebe c8ec 05be b3c7 d7bc f6af 4b3e
00000020: 9604 2fbe cf75 3b3e f98b 04be 51a2 c3be
00000030: f0a9 463f 0736 853d cba3 333d be7b 543e
00000040: 4302 d8bc 6bb2 313e 3e5c a3be fed2 42bc
00000050: 5592 333e bb96 52bd 221b 5bbc cc56 0c3e
-0.36252758 0.025159577 -0.38818175 0.04334944 -0.13886908 -0.13078606 -0.026340341 0.19891343
-0.17091593 0.18306659 -0.1294402 -0.38209775 0.77603054 0.065044455 0.043857377 0.20750329
-0.026368266 0.17353217 -0.31906313 -0.011891125 0.1753629 -0.05141328 -0.013373168 0.13704985

biases.1.weight f4 [1, 2]
00000000: 9162 3fbd 9162 3f3d
-0.04672486 0.04672486

act_fun.0.grid f4 [192, 7]
00000000: d909 cbbf d607 35bf 1510 303e f087 863f
00000010: de0d f73f e6c9 3340 dc0c 6c40 4d48 eebf
00000020: 1d9c b2bf d9df 6dbf f00e edbe f2e8 503b
00000030: 9452 f03e ab81 6f3f b998 78bf 1ce2 04bf
00000040: f25b 89bd 3e16 c53e bc41 563f 2dfc a43f
00000050: 7cd7 de3f 2738 13c0 22af dcbf f6ed 92bf
00000060: 9259 12bf 7663 943b 20ab 143f bd16 943f
00000070: 2476 96bf abdc 42be f27d 4b3f 88d9 e33f
00000080: 0bfa 3040 5207 7040 4d8a 9740 3150 adbf
00000090: aa0e 17bf 380c 323e c614 703f 3fd3 d93f
000000a0: 0ece 1d40 7cb2 4e40 81cc 25c0 55b1 fcbf
000000b0: a8c9 adbf f5c3 3dbf dca4 ffbd 7db5 fb3e
000000c0: 0cd5 8d3f bf51 42c0 4a15 04c0 a8b1 8bbf
000000d0: c78b f3bd 5e80 5a3f 1ab9 e93f 0319 3340
000000e0: d909 cbbf d607 35bf 1510 303e f087 863f
000000f0: de0d f73f e6c9 3340 dc0c 6c40 4d48 eebf
00000100: 1d9c b2bf d9df 6dbf f00e edbe f2e8 503b
00000110: 9452 f03e ab81 6f3f b998 78bf 1ce2 04bf
00000120: f25b 89bd 3e16 c53e bc41 563f 2dfc a43f
00000130: 7cd7 de3f 2738 13c0 22af dcbf f6ed 92bf
00000140: 9259 12bf 7663 943b 20ab 143f bd16 943f
00000150: 2476 96bf abdc 42be f27d 4b3f 88d9 e33f
00000160: 0bfa 3040 5207 7040 4d8a 9740 3150 adbf
00000170: aa0e 17bf 380c 323e c614 703f 3fd3 d93f
00000180: 0ece 1d40 7cb2 4e40 81cc 25c0 55b1 fcbf
00000190: a8c9 adbf f5c3 3dbf dca4 ffbd 7db5 fb3e
000001a0: 0cd5 8d3f bf51 42c0 4a15 04c0 a8b1 8bbf
000001b0: c78b f3bd 5e80 5a3f 1ab9 e93f 0319 3340
000001c0: d909 cbbf d607 35bf 1510 303e f087 863f
000001d0: de0d f73f e6c9 3340 dc0c 6c40 4d48 eebf
000001e0: 1d9c b2bf d9df 6dbf f00e edbe f2e8 503b
000001f0: 9452 f03e ab81 6f3f b998 78bf 1ce2 04bf
00000200: f25b 89bd 3e16 c53e bc41 563f 2dfc a43f
00000210: 7cd7 de3f 2738 13c0 22af dcbf f6ed 92bf
00000220: 9259 12bf 7663 943b 20ab 143f bd16 943f
00000230: 2476 96bf abdc 42be f27d 4b3f 88d9 e33f
00000240: 0bfa 3040 5207 7040 4d8a 9740 3150 adbf
00000250: aa0e 17bf 380c 323e c614 703f 3fd3 d93f
00000260: 0ece 1d40 7cb2 4e40 81cc 25c0 55b1 fcbf
00000270: a8c9 adbf f5c3 3dbf dca4 ffbd 7db5 fb3e
00000280: 0cd5 8d3f bf51 42c0 4a15 04c0 a8b1 8bbf
00000290: c78b f3bd 5e80 5a3f 1ab9 e93f 0319 3340
000002a0: d909 cbbf d607 35bf 1510 303e f087 863f
000002b0: de0d f73f e6c9 3340 dc0c 6c40 4d48 eebf
000002c0: 1d9c b2bf d9df 6dbf f00e edbe f2e8 503b
000002d0: 9452 f03e ab81 6f3f b998 78bf 1ce2 04bf
000002e0: f25b 89bd 3e16 c53e bc41 563f 2dfc a43f
000002f0: 7cd7 de3f 2738 13c0 22af dcbf f6ed 92bf
00000300: 9259 12bf 7663 943b 20ab 143f bd16 943f
00000310: 2476 96bf abdc 42be f27d 4b3f 88d9 e33f
00000320: 0bfa 3040 5207 7040 4d8a 9740 3150 adbf
00000330: aa0e 17bf 380c 323e c614 703f 3fd3 d93f
00000340: 0ece 1d40 7cb2 4e40 81cc 25c0 55b1 fcbf
00000350: a8c9 adbf f5c3 3dbf dca4 ffbd 7db5 fb3e
00000360: 0cd5 8d3f bf51 42c0 4a15 04c0 a8b1 8bbf
00000370: c78b f3bd 5e80 5a3f 1ab9 e93f 0319 3340
00000380: d909 cbbf d607 35bf 1510 303e f087 863f
00000390: de0d f73f e6c9 3340 dc0c 6c40 4d48 eebf
000003a0: 1d9c b2bf d9df 6dbf f00e edbe f2e8 503b
000003b0: 9452 f03e ab81 6f3f b998 78bf 1ce2 04bf
000003c0: f25b 89bd 3e16 c53e bc41 563f 2dfc a43f
000003d0: 7cd7 de3f 2738 13c0 22af dcbf f6ed 92bf
000003e0: 9259 12bf 7663 943b 20ab 143f bd16 943f
000003f0: 2476 96bf abdc 42be f27d 4b3f 88d9 e33f
-1.586238 -0.7071508 0.17193635 1.0510235 1.9301107 2.809198 3.6882849 -1.8615814
-1.3953892 -0.9291969 -0.4630046 0.0031877127 0.46938002 0.9355723 -0.97108036 -0.51907516
-0.0670699 0.38493532 0.8369405 1.2889458 1.7409511 -2.3003023 -1.7240946 -1.147887
-0.57167923 0.004528458 0.58073616 1.1569439 -1.1754804 -0.1902949 0.7948905 1.780076
2.7652614 3.7504468 4.7356324 -1.3540097 -0.5900675 0.17387474 0.937817 1.7017592
2.4657016 3.2296438 -2.590607 -1.9741617 -1.3577166 -0.7412713 -0.12482616 0.49161902
1.1080642 -3.0362394 -2.0637994 -1.0913591 -0.11891895 0.8535212 1.8259614 2.7984016
-1.586238 -0.7071508 0.17193635 1.0510235 1.9301107 2.809198 3.6882849 -1.8615814
-1.3953892 -0.9291969 -0.4630046 0.0031877127 0.46938002 0.9355723 -0.97108036 -0.51907516
-0.0670699 0.38493532 0.8369405 1.2889458 1.7409511 -2.3003023 -1.7240946 -1.147887
-0.57167923 0.004528458 0.58073616 1.1569439 -1.1754804 -0.1902949 0.7948905 1.780076
2.7652614 3.7504468 4.7356324 -1.3540097 -0.5900675 0.17387474 0.937817 1.7017592
2.4657016 3.2296438 -2.590607 -1.9741617 -1.3577166 -0.7412713 -0.12482616 0.49161902
1.1080642 -3.0362394 -2.0637994 -1.0913591 -0.11891895 0.8535212 1.8259614 2.7984016
-1.586238 -0.7071508 0.17193635 1.0510235 1.9301107 2.809198 3.6882849 -1.8615814
-1.3953892 -0.9291969 -0.4630046 0.0031877127 0.46938002 0.9355723 -0.97108036 -0.51907516
-0.0670699 0.38493532 0.8369405 1.2889458 1.7409511 -2.3003023 -1.7240946 -1.147887
-0.57167923 0.004528458 0.58073616 1.1569439 -1.1754804 -0.1902949 0.7948905 1.780076
2.7652614 3.7504468 4.7356324 -1.3540097 -0.5900675 0.17387474 0.937817 1.7017592
2.4657016 3.2296438 -2.590607 -1.9741617 -1.3577166 -0.7412713 -0.12482616 0.49161902
1.1080642 -3.0362394 -2.0637994 -1.0913591 -0.11891895 0.8535212 1.8259614 2.7984016
-1.586238 -0.7071508 0.17193635 1.0510235 1.9301107 2.809198 3.6882849 -1.8615814
-1.3953892 -0.9291969 -0.4630046 0.0031877127 0.46938002 0.9355723 -0.97108036 -0.51907516
-0.0670699 0.38493532 0.8369405 1.2889458 1.7409511 -2.3003023 -1.7240946 -1.147887
-0.57167923 0.004528458 0.58073616 1.1569439 -1.1754804 -0.1902949 0.7948905 1.780076
2.7652614 3.7504468 4.7356324 -1.3540097 -0.5900675 0.17387474 0.937817 1.7017592
2.4657016 3.2296438 -2.590607 -1.9741617 -1.3577166 -0.7412713 -0.12482616 0.49161902
1.1080642 -3.0362394 -2.0637994 -1.0913591 -0.11891895 0.8535212 1.8259614 2.7984016
-1.586238 -0.7071508 0.17193635 1.0510235 1.9301107 2.809198 3.6882849 -1.8615814
-1.3953892 -0.9291969 -0.4630046 0.0031877127 0.46938002 0.9355723 -0.97108036 -0.51907516
-0.0670699 0.38493532 0.8369405 1.2889458 1.7409511 -2.3003023 -1.7240946 -1.147887
-0.57167923 0.004528458 0.58073616 1.1569439 -1.1754804 -0.1902949 0.7948905 1.780076

act_fun.0.coef f4 [192, 9]
00000000: faba dbbd 315f 3bbd af77 203e 386d a8be
00000010: c282 a53e 56e1 9ebd 032f 00bf c112 523e
00000020: ea6d c63d 7a63 32c2 3690 3741 01a4 2fc0
00000030: 0d6f 143e 004d 633d 1e46 5f3e 1011 4cbf
00000040: e2c2 20bf d382 6040 7b23 55c2 ed2f 5141
00000050: 2d1f 80c0 3943 ba3f 0384 fbbe 2d8e e53f
00000060: 28d4 aac0 0762 9241 ae18 91c2 8d63 32bd
00000070: 79a7 c8bd a15c 72be 26ff 473e 7cae cd3e
00000080: 7949 14bf 0e2f 523f c995 26bf 426f 52be
00000090: ddd7 93be 5e17 093e a2b7 2dbe 3b12 9fbe
000000a0: 52ab aebe bec5 2a3f 67c6 e9bc 2576 e9bd
000000b0: 32bc 1ebd 5229 8bbe e63f bbbf f502 243f
000000c0: 87e7 323f d637 debc d9f9 903e f47a 48bd
000000d0: bdc9 5ebe 87ad dabc 1a4f 70bd c339 70be
000000e0: d6f4 cfbd b02e b63e 484b 3ebe d995 00bf
000000f0: 8ea7 04bf 31e1 0b3f e362 883e faac 9f4c
00000100: 48b8 26cf 9c7b 2050 56e0 224a b75b 92c7
00000110: 6747 6ccb 0f9f af50 e0a8 08cf 97a7 68d0
00000120: 22cf 4f3c a1be 243f fb13 90be dd2a 37be
00000130: 032b 783e b80a cbbe 44d5 3dbe 5628 a63d
00000140: 96f7 edbc 15fa cb42 6655 d1c1 c1d0 d340
00000150: dab6 6dbf 08d8 523d 4db3 8cbe dba9 3e3f
00000160: 2f13 93c0 5ac7 a141 c661 37c0 2333 583f
00000170: fada 3abf 12c9 2f3e 1fb9 c5bd 32c8 823f
00000180: befc 0ac0 ed4d d040 0092 c9c1 6ed5 d93c
00000190: d744 763d 40c7 e53d 20c1 a93e 5051 1ebf
000001a0: 7f3a aebe 0aa8 9b3f 02eb bfbe 5da5 b7be
000001b0: 2f9f bc3d 166b 0dbe aadb 623e 7baa 853e
000001c0: 01be 03bf 2d93 d23d 492b 163e aeac a73c
000001d0: 8dec 3dbb a52a 40bd 57c8 5bbf 0cc8 e2bd
000001e0: fa04 733d 5e93 473f a5f1 163f 1d70 30be
000001f0: 75d8 2ebe c136 1cbd f6a3 a7bb a8be 18bf
00000200: cf56 bbbd 82d3 4f3e a785 023e 7d71 c8be
00000210: ab2e 153f f955 e33e 4aa0 43be 45b0 edcd
00000220: 942c 7850 d2e3 6ed1 f273 72cb 92dd d948
00000230: dcdb af4c 5ab6 02d2 6e6d 4b50 4f29 ad51
00000240: e40e 3bbe 9ef5 aa3e c38f 903e 1a78 46bf
00000250: fff8 d1be cda8 203e 0a7d 303d 42d7 8f3d
00000260: 099e 54bd 18d3 49c3 f6d3 4e42 91b3 55c1
00000270: 26cb 3240 6b33 80be 2bcc 903f 8a4a 6dc0
00000280: 65fc 4241 4adc 50c2 e7f4 1542 f86a 0bc1
00000290: b378 aa3f fea4 b8be 10b1 a73f 73f4 a3c0
000002a0: ef7d 6941 a6f5 67c2 3d5b 6943 ab40 82bd
000002b0: c563 97bc 332d a9be bea9 5abf d30d 9c3d
000002c0: 26fa 1a3f ad0c 85be 4faa 2e3e 4680 8f3e
000002d0: 439e ecbd 88fa 23be a67f 3bbf 21f7 afbe
000002e0: cbe6 943f 6964 fc3d c010 4abe ecf9 02be
000002f0: 683e a2bd 27e1 f1bd b787 09be a139 ae3f
00000300: a252 e8be 6bdf d8be 1822 83bf e53f 113e
00000310: 08e2 263e 16d6 e0bd 0c58 2bbc 32db c93d
00000320: e008 8fbe df98 9fbe 782e cabe 12a7 eb3e
00000330: 5c51 2abf 70dd 693e 62c8 d73e 56a9 b84c
00000340: cdce 40cf 4898 3950 c25c 3c4a dd42 a9c7
00000350: 22a0 88cb 1f1a cb50 340b 1ecf a687 86d0
00000360: 7444 8cbd c6c5 c3bc 7254 b6bd 9d78 583e
00000370: d8a9 893e d035 d3bd 6afd 5bbe 7e58 403c
00000380: 2983 b23c 276c fcbf 47c6 073f 0404 a6be
00000390: a8e1 18bd eeb6 463e 33bd 3dbe 6e7b d03e
000003a0: ae7e d8bf c350 eb40 5ca1 c2c0 d5f1 c83f
000003b0: 914b 38bf b1f0 873c ef80 f0bd b902 4d3f
000003c0: a9be aebf 8449 a240 6abb a0c1 8cdc ac3c
000003d0: a576 eb3d fe8a 253d 6aca 28be 5398 8dbd
000003e0: 161b 313d dfa5 aebd c9d4 993d c935 093e
000003f0: ad13 62bd 756f c13e e979 ebbc 72bd 84be
-0.10729022 -0.04574508 0.15670656 -0.32895827 0.32326323 -0.07757823 -0.50071734 0.20514967
0.09688933 -44.597145 11.472708 -2.744385 0.14495488 0.055493355 0.21804091 -0.79713535
-0.6279737 3.5079849 -53.28465 13.074201 -4.0038056 1.4551765 -0.49124154 1.7934014
-5.338398 18.297865 -72.5482 -0.04355197 -0.09797568 -0.23668148 0.19530925 0.40172184
-0.5792461 0.8210305 -0.65072304 -0.20550254 -0.28875628 0.1338782 -0.16964582 -0.31068596
-0.34115082 0.6670798 -0.028536988 -0.113994874 -0.038753696 -0.27179962 -1.4628875 0.6406701
0.6988453 -0.027126234 0.2831562 -0.048945382 -0.21756645 -0.026694072 -0.058669187 -0.23459534
-0.101541206 0.35582495 -0.18583405 -0.5022865 -0.5181817 0.5464049 0.26637945 8.371605e+07
-2.797095e+09 1.0769822e+10 2.6685655e+06 -74935.43 -1.5484775e+07 2.3571495e+10 -2.2927688e+09 -1.5613189e+10
0.012683662 0.64353377 -0.28140244 -0.17887445 0.24235158 -0.39656615 -0.18538386 0.08113162
-0.029048722 101.98844 -26.166698 6.6192327 -0.92857134 0.051475555 -0.27480546 0.7447793
-4.5960917 20.22234 -2.8653426 0.8445303 -0.7299038 0.17166546 -0.0965445 1.0217345
-2.1716762 6.5095124 -25.19629 0.026591029 0.060124245 0.112196445 0.33155155 -0.61842823
-0.34029004 1.2160656 -0.37483984 -0.3586835 0.09210049 -0.13810381 0.22154108 0.2610663
-0.514618 0.10281978 0.1466495 0.020468082 -0.0028980107 -0.04691567 -0.8585257 -0.11073312
0.059330918 0.7795924 0.5896247 -0.17230268 -0.1707476 -0.038138155 -0.005115981 -0.5966592
-0.09147417 0.20295528 0.12746297 -0.39149085 0.58274335 0.4440153 -0.19104114 -4.9846902e+08
1.6654684e+10 -6.4126525e+10 -1.5889394e+07 446188.56 9.220067e+07 -1.4035128e+11 1.3651786e+10 9.29653e+10
-0.18267399 0.33390516 0.2823468 -0.7752701 -0.4101028 0.15689392 0.043087997 0.07023479
-0.051908527 -201.82458 51.706993 -13.356339 2.7936492 -0.2503923 1.1312307 -3.7076745
12.18662 -52.215126 37.489162 -8.713615 1.3318084 -0.3606338 1.310091 -5.12359
14.5932455 -57.98989 233.3564 -0.06359991 -0.018480191 -0.33042297 -0.85415256 0.07619824
0.60537946 -0.25986233 0.17057155 0.28027552 -0.115536235 -0.16013539 -0.7324165 -0.34368232
1.1632932 0.12323839 -0.19732952 -0.1279065 -0.07922059 -0.118105225 -0.13430677 1.3611337
-0.45375544 -0.42357954 -1.024478 0.1418453 0.16297162 -0.10978334 -0.010458004 0.09856261
-0.2793646 -0.3117132 -0.39488578 0.46025902 -0.66530395 0.22838378 0.42145067 9.681579e+07
-3.2347784e+09 1.2455059e+10 3.0861285e+06 -86661.73 -1.790778e+07 2.7259894e+10 -2.6515343e+09 -1.8056294e+10
-0.06848994 -0.023898017 -0.089028254 0.2113976 0.26887393 -0.10312998 -0.21483389 0.011739848
0.021791058 -1.9720505 0.5303692 -0.3242494 -0.037324578 0.1940572 -0.18529205 0.4071917
-1.691366 7.3536086 -6.082197 1.5698801 -0.71990305 0.016594263 -0.11743342 0.8008228
-1.3651935 5.071474 -20.09151 0.021101259 0.11497239 0.040415756 -0.16483465 -0.06913819
0.04323872 -0.08527731 0.07511289 0.13399424 -0.055194546 0.37780347 -0.028744655 -0.25925785

act_fun.0.scale_base f4 [192]
00000000: 0a87 a7be d47f 813d e9ec 803e cb2a cabe
00000010: 1900 4b3f c48f b53e b924 843f ffe0 95be
00000020: 4a95 eebe 6eec ae3e 1ab1 173f 916f 1dbe
00000030: 178d 023f 0a84 8b3f 3037 453f 021b abbe
00000040: fbe8 043e 1d43 91bf cf00 cd3e a75a 9b3f
00000050: 3bad 8c3f 6857 a7bf b4b6 8d3f fb8c 033d
00000060: 30df 18ba 4c5a 973e 1017 053f f097 003f
00000070: 874f ab3e b396 2b3f 0404 cd3e 5aac 1c3e
00000080: 5139 6b3e 798d 9d3e 4492 833e a2c2 423e
00000090: 88be 0d3f a7fb 8e3e be6c ac3e 595e f23c
000000a0: 646f 053f d2df 353f a853 483e b162 44bd
000000b0: fde2 aabe 5373 303f 3bc7 dcbe 0a5f b23d
000000c0: 859b e93e a329 623e 6fbc db3e cc2b ebbc
000000d0: 093c 0ebe b42d 323f 8ee1 8a3f 7f45 a1bd
000000e0: 2685 a83d 1801 983d 4f1f 8b3e f8e9 d03f
000000f0: bcdd 4dbd b5d5 153e 904f ac3f 364c 223d
00000100: 7842 25bd e597 2b3f ef28 623f 4507 0c3f
00000110: 7358 fdbd 4ed5 773f aed3 133f 549f 2c3e
00000120: 231c 0d3f dba9 05bf 646c 513f cc07 2e3e
00000130: 0ac0 dd3d 3709 0d3f e06e b1bd 455a fd3d
00000140: 408e 173f 44c0 a33e a574 9d3e b477 4fbc
00000150: 4d0c 693e ba47 653d 8e56 fe3e 98c4 a0bd
00000160: a303 4dbe f19c 943f 09fa a5bd bfe8 623d
00000170: 90b1 e93d 2bc7 b43e 05b1 07be c740 673d
00000180: c126 50bf 6532 383e 5f88 ccbe 93b7 dd3e
00000190: b8dd a63c ef14 aabf 5c66 143f d1ff 673f
000001a0: f6dd 8fbd 6add 7bbd 8dcf 283f b4a1 973e
000001b0: 48e4 323e 2a42 2f3e 7678 1b3f 58ee 63bd
000001c0: bfd2 ae3e 00a2 71be 6b30 543f 0656 a13e
000001d0: deeb a6bd e9fc 543e 25cc d1be 42e7 cb3d
000001e0: ebc1 dfbd 3c81 393d f20e be3f 6707 57be
000001f0: c45a 7c3e bdb9 353f e17d 8e3e 7197 c43e
00000200: c243 383f 5f90 32bd 3d51 16be 6654 8e3e
00000210: 3dde 8d3e 2d77 f83d a8f1 ba3f 67a0 fa3d
00000220: 9f0b 7a3f a6b8 ea3e 2837 b33e 1d6c c7bd
00000230: 9b28 7c3e dd6d 1d3e 194d ee3e 7e81 e6bd
00000240: 557c 243f 4cab 6c3e b79d 203f d15e de3e
00000250: dcec a6bd 1a3d 353d 4bfc c63e 6b97 99bb
00000260: 2a88 fa3e bd9e 3cbc 2ed0 65be dc20 babe
00000270: 42f4 1bbe 18d0 333d fccc dfbd 39db 8fbe
00000280: b8f0 9e3e e9d5 73be cfa9 5c3f 9b06 b33e
00000290: 7518 373e 1d1a 1fbe 0b8e 853e cf3e 6b3f
000002a0: d407 7b3d 89a2 4f3d 60c9 2a3f 1e97 883e
000002b0: 27a3 a53c cca7 a9bd e0f2 3a3e 5129 dabc
000002c0: d521 533f dab5 07bf 83c4 46be 2867 b23e
000002d0: f437 833f 864d 91bc ca19 033f 75e4 2e3e
000002e0: 0632 1abe 1f80 70bd b17c 5a3f 87d4 813e
000002f0: 2168 f13b 1d37 c13e db52 e73e ec52 543d
-0.32720214 0.063232094 0.25180748 -0.39485773 0.79297024 0.35461247 1.0323707 -0.2927322
-0.46598274 0.34164757 0.5925461 -0.1537459 0.50996536 1.089967 0.77037334 -0.33419043
0.129795 -1.1348606 0.4003968 1.213704 1.0990366 -1.3073549 1.1071382 0.03211687
-0.00058315974 0.2956108 0.51988316 0.5023184 0.33459112 0.67026824 0.40042126 0.15300122
0.22971083 0.30771998 0.2569753 0.19019559 0.5536885 0.2792637 0.33676714 0.029586004
0.52123094 0.7104465 0.19563162 -0.047945682 -0.33376303 0.6892597 -0.4312075 0.087095335
0.45626464 0.22086196 0.429172 -0.028707407 -0.13890089 0.6960099 1.0850084 -0.078745835
0.08228521 0.074220836 0.27172324 1.6321402 -0.05026029 0.14632304 1.346178 0.03962346
-0.040346593 0.6702865 0.8834371 0.5469859 -0.12370386 0.9680985 0.5774487 0.16857654
0.5512106 -0.52212304 0.81806016 0.16995162 0.10827644 0.55092186 -0.08663726 0.12370733
0.5920143 0.31982625 0.30753055 -0.012662817 0.22758599 0.055976607 0.4967541 -0.07849997
-0.20020919 1.1610395 -0.08104331 0.055397745 0.114108205 0.35308203 -0.13251121 0.05645826
-0.81309134 0.17987974 -0.39947793 0.4330412 0.020369396 -1.3287638 0.5796869 0.9062472
-0.070247576 -0.061490454 0.659417 0.29615557 0.17469895 0.17115083 0.60730684 -0.055647224
0.34145162 -0.23596954 0.8288638 0.31510943 -0.08150457 0.20799603 -0.40976062 0.09956218
-0.10925659 0.045289263 1.4848311 -0.20998918 0.24644 0.7098654 0.27830413 0.3839679
0.7197839 -0.043594714 -0.14679427 0.27798766 0.27708617 0.12132106 1.4604998 0.122376256
0.9767398 0.45844 0.35003018 -0.09737418 0.24624865 0.15373941 0.46543196 -0.112551674
0.64252216 0.2311222 0.62740654 0.43431714 -0.08150646 0.044247724 0.3886436 -0.00468724
0.4893201 -0.0115124555 -0.22442695 -0.36353195 -0.15229896 0.043899626 -0.109277695 -0.2809694
0.3104303 -0.23812069 0.8619661 0.34965977 0.17880423 -0.15537305 0.26084933 0.91892713
0.061286762 0.050692115 0.66713524 0.26677793 0.020219399 -0.08283958 0.18256712 -0.02663103
0.824735 -0.5301186 -0.19410901 0.34844327 1.025145 -0.017737161 0.51211226 0.17079337
-0.15058145 -0.058715936 0.85346514 0.25357458 0.0073671495 0.3773736 0.451804 0.051836893

act_fun.0.scale_sp f4 [192]
00000000: a5bc 403f b342 8d3f 20aa 843f 1eec 8f3f
00000010: f6da 833f 8930 b83f 9f46 8d3f e948 5f3f
00000020: 9ff6 6d3f c511 b03f 089c 573f cd78 aa3f
00000030: 53a0 683f e69e a03f 6a75 833f 35e8 af3f
00000040: c5ad 7b3f c587 be3f d8b3 da3f d7e4 583f
00000050: 25fd af3f b2a5 cd3f 2b74 853f ff33 6d3f
00000060: 1b4e 863f 4b18 823f 3e01 893f 207a 813f
00000070: b81d 873f ea4f 883f c647 803f c904 803f
00000080: 2b2d 743f c270 783f ccdd 3f3f 956a a13f
00000090: 115c 723f f4d7 763f 6258 843f 2bfb 963f
000000a0: 136f 7b3f 9ef1 a23f 7a13 973f f179 b93f
000000b0: ddde 7a3f ce72 9b3f dd0a 8d3f eb8f 803f
000000c0: d4ab 743f 4d96 6d3f cdd4 523f bddb 843f
000000d0: b8b8 673f 592f a93f bb72 b53f 1f83 733f
000000e0: e7e2 863e 8540 a33e 3dba 443f b773 103f
000000f0: 765e b13d d4d4 cc3e 64c6 883f 53b6 3a3f
00000100: 760d 013f 9c92 903f a6c8 313f 6fc9 5d3f
00000110: 2216 253f d738 ef3f a825 203f 241b 4b3f
00000120: 2c1c 443f b8fd a23f 3063 893f 4b97 933f
00000130: eca4 4f3f b3b5 4a3f 704a eb3f dc90 6f3f
00000140: 3691 7f3f 2a24 7b3f e2df 733f 8ec3 853f
00000150: 4f15 7b3f 17e4 843f 1c58 843f b040 7e3f
00000160: ef07 3a3f 5a34 8d3f 29f2 a13f 2e6c 123f
00000170: 34f6 0f3f dae2 843f 95ac c13f 2b82 453f
00000180: c52f 7e3f 607c b83f 210a 993f 427e 673f
00000190: ba12 303f d03d 6f3f 1ec2 aa3f 226d 4e3f
000001a0: 9111 423f a99d 663f 9b8d 853f 5915 763f
000001b0: 62eb bd3e d35a 8a3f ecdb 903f f54d 403f
000001c0: de50 923f 8cc3 7c3f 8bf1 843f 3636 b03f
000001d0: 0fd6 773f b0bf 813f 261f 9b3f 6968 833f
000001e0: 8150 813f f223 353f f18d 863f 8b4f 463f
000001f0: a28b 5b3f c9ce 293f 72fe 353f 153f 813f
00000200: 8fe2 873f c6bf 763f 8e08 843f a17d a73f
00000210: d480 663f e5e8 663f 6728 963f f61a 5f3f
00000220: 6a82 8d3f ae9f 473f c3fc 773f 4d27 bc3f
00000230: d83e 853f b125 503f 43d8 8c3f 0875 823f
00000240: 2908 773f 5874 7d3f 4bff 713f c765 863f
00000250: 8c00 823f 0522 833f f41c 923f 7a06 813f
00000260: 5b22 573f 9c99 973f 8f0e 3a3f c9e3 cf3f
00000270: 6b76 433f 2065 523f 4e35 863f 8b19 9c3f
00000280: a3de 5c3f 01c1 4a3f 6c93 8a3f 2dc0 803f
00000290: 82d3 a53f 4e78 8d3f d6e3 563f eb3f 643f
000002a0: f072 2e3f 4242 1f3f a66e 0d3f 9ca7 ce3e
000002b0: b705 0b3f be04 323f 66b9 8e3f 1b4e 233f
000002c0: cd45 7a3f 2358 963f f7a3 d83f f138 a03f
000002d0: d7bc 883f edec 8f3f 5f61 993f 73ca 8c3f
000002e0: e7fe e53e dea3 623f c9f2 6b3f 04e1 8a3f
000002f0: 3f5d 7b3e 5374 853f 199e b43f 4ad9 533f
0.7528785 1.103598 1.0364418 1.1243932 1.0301197 1.4389812 1.1037177 0.8722063
0.9295444 1.3755423 0.8422246 1.3318115 0.90869635 1.2548492 1.0270207 1.3742739
0.98312026 1.4885184 1.7086134 0.8472418 1.3749129 1.6066191 1.0426077 0.92657465
1.0492586 1.0163664 1.0703504 1.0115395 1.0555944 1.0649388 1.0021904 1.000146
0.9538142 0.97047055 0.7494781 1.2610651 0.9467173 0.9642327 1.0339472 1.17954
0.9821636 1.2729986 1.1802819 1.4490339 0.9799631 1.2144411 1.101894 1.004392
0.9557469 0.92807466 0.8235596 1.0379559 0.90516233 1.3217574 1.4175638 0.9512195
0.26344988 0.31885162 0.7684668 0.56426567 0.08660595 0.40006125 1.0685544 0.72934455
0.50411165 1.1294742 0.6944679 0.8663549 0.64486897 1.8689221 0.6255746 0.7933829
0.76605487 1.2733679 1.0733395 1.1530546 0.81111026 0.791835 1.8382092 0.9358041
0.9983095 0.98102057 0.95263493 1.0450304 0.9807939 1.0382107 1.0339389 0.99317455
0.72668356 1.1031601 1.2652026 0.5719632 0.5623505 1.038173 1.5130793 0.77151746
0.9929164 1.4412956 1.1956216 0.9042703 0.68778574 0.93453693 1.334049 0.80635273
0.75808054 0.9008432 1.043384 0.96126324 0.37093645 1.0808967 1.1317115 0.75118953
1.1430929 0.9873588 1.0386213 1.3766544 0.96811 1.0136623 1.2118881 1.0266238
1.0102693 0.70757973 1.0512067 0.7746512 0.8575994 0.66331154 0.7109138 1.0097376
1.0616015 0.96386373 1.0315111 1.3085214 0.90040326 0.9019912 1.173108 0.87150514
1.1055424 0.77978027 0.9687006 1.4699494 1.0409803 0.8130751 1.1003498 1.0191965
0.96496826 0.9900565 0.9453017 1.049981 1.0156417 1.0244757 1.1415086 1.0080101
0.840368 1.1843753 0.72678465 1.624139 0.76352566 0.82185555 1.0485017 1.2195295
0.86277217 0.7920075 1.082624 1.0058647 1.2955172 1.1052339 0.839414 0.8916003
0.6814413 0.62210476 0.5524696 0.4036225 0.54305595 0.69538486 1.1150329 0.63791054
0.9776276 1.1745647 1.6925038 1.2517377 1.0682629 1.1244179 1.198284 1.0999283
0.44921038 0.8853129 0.92167336 1.0849919 0.2454729 1.0426124 1.4110748 0.8275343

act_fun.0.mask f4 [192]
00000000: 0000 0000 0000 0000 0000 0000 0000 0000
00000010: 0000 0000 0000 0000 0000 0000 0000 0000
00000020: 0000 0000 0000 0000 0000 0000 0000 0000
00000030: 0000 0000 0000 0000 0000 0000 0000 0000
00000040: 0000 0000 0000 0000 0000 0000 0000 0000
00000050: 0000 0000 0000 0000 0000 0000 0000 0000
00000060: 0000 0000 0000 0000 0000 0000 0000 0000
00000070: 0000 0000 0000 0000 0000 0000 0000 0000
00000080: 0000 0000 0000 0000 0000 0000 0000 0000
00000090: 0000 0000 0000 0000 0000 0000 0000 0000
000000a0: 0000 0000 0000 0000 0000 0000 0000 0000
000000b0: 0000 0000 0000 0000 0000 0000 0000 0000
000000c0: 0000 0000 0000 0000 0000 0000 0000 0000
000000d0: 0000 0000 0000 0000 0000 0000 0000 0000
000000e0: 0000 0000 0000 0000 0000 0000 0000 0000
000000f0: 0000 0000 0000 0000 0000 0000 0000 0000
00000100: 0000 0000 0000 0000 0000 0000 0000 0000
00000110: 0000 0000 0000 0000 0000 0000 0000 0000
00000120: 0000 0000 0000 0000 0000 0000 0000 0000
00000130: 0000 0000 0000 0000 0000 0000 0000 0000
00000140: 0000 0000 0000 0000 0000 0000 0000 0000
00000150: 0000 0000 0000 0000 0000 0000 0000 0000
00000160: 0000 0000 0000 0000 0000 0000 0000 0000
00000170: 0000 0000 0000 0000 0000 0000 0000 0000
00000180: 0000 0000 0000 0000 0000 0000 0000 0000
00000190: 0000 0000 0000 0000 0000 0000 0000 0000
000001a0: 0000 0000 0000 0000 0000 0000 0000 0000
000001b0: 0000 0000 0000 0000 0000 0000 0000 0000
000001c0: 0000 0000 0000 0000 0000 0000 0000 0000
000001d0: 0000 0000 0000 0000 0000 0000 0000 0000
000001e0: 0000 0000 0000 0000 0000 0000 0000 0000
000001f0: 0000 0000 0000 0000 0000 0000 0000 0000
00000200: 0000 0000 0000 0000 0000 0000 0000 0000
00000210: 0000 0000 0000 0000 0000 0000 0000 0000
00000220: 0000 0000 0000 0000 0000 0000 0000 0000
00000230: 0000 0000 0000 0000 0000 0000 0000 0000
00000240: 0000 0000 0000 0000 0000 0000 0000 0000
00000250: 0000 0000 0000 0000 0000 0000 0000 0000
00000260: 0000 0000 0000 0000 0000 0000 0000 0000
00000270: 0000 0000 0000 0000 0000 0000 0000 0000
00000280: 0000 0000 0000 0000 0000 0000 0000 0000
00000290: 0000 0000 0000 0000 0000 0000 0000 0000
000002a0: 0000 0000 0000 0000 0000 0000 0000 0000
000002b0: 0000 0000 0000 0000 0000 0000 0000 0000
000002c0: 0000 0000 0000 0000 0000 0000 0000 0000
000002d0: 0000 0000 0000 0000 0000 0000 0000 0000
000002e0: 0000 0000 0000 0000 0000 0000 0000 0000
000002f0: 0000 0000 0000 0000 0000 0000 0000 0000
0.0 0.0 0.0 0.0 0.0 0.0 0.0 0.0
0.0 0.0 0.0 0.0 0.0 0.0 0.0 0.0
0.0 0.0 0.0 0.0 0.0 0.0 0.0 0.0
0.0 0.0 0.0 0.0 0.0 0.0 0.0 0.0
0.0 0.0 0.0 0.0 0.0 0.0 0.0 0.0
0.0 0.0 0.0 0.0 0.0 0.0 0.0 0.0
0.0 0.0 0.0 0.0 0.0 0.0 0.0 0.0
0.0 0.0 0.0 0.0 0.0 0.0 0.0 0.0
0.0 0.0 0.0 0.0 0.0 0.0 0.0 0.0
0.0 0.0 0.0 0.0 0.0 0.0 0.0 0.0
0.0 0.0 0.0 0.0 0.0 0.0 0.0 0.0
0.0 0.0 0.0 0.0 0.0 0.0 0.0 0.0
0.0 0.0 0.0 0.0 0.0 0.0 0.0 0.0
0.0 0.0 0.0 0.0 0.0 0.0 0.0 0.0
0.0 0.0 0.0 0.0 0.0 0.0 0.0 0.0
0.0 0.0 0.0 0.0 0.0 0.0 0.0 0.0
0.0 0.0 0.0 0.0 0.0 0.0 0.0 0.0
0.0 0.0 0.0 0.0 0.0 0.0 0.0 0.0
0.0 0.0 0.0 0.0 0.0 0.0 0.0 0.0
0.0 0.0 0.0 0.0 0.0 0.0 0.0 0.0
0.0 0.0 0.0 0.0 0.0 0.0 0.0 0.0
0.0 0.0 0.0 0.0 0.0 0.0 0.0 0.0
0.0 0.0 0.0 0.0 0.0 0.0 0.0 0.0
0.0 0.0 0.0 0.0 0.0 0.0 0.0 0.0

act_fun.1.grid f4 [48, 7]
00000000: 7479 5bc0 4a44 03c0 803c 2cbf 2998 343f
00000010: 345b 0540 5e90 5d40 c4e2 9a40 70c6 3fc0
00000020: cf93 babf 2654 a63d 545e cf3f b22b 4a40
00000030: 1e54 9640 6292 c740 4f73 06c1 9d22 bbc0
00000040: 37bd 52c0 d1d4 3cbf 9da5 e83f 69ed 8b40
00000050: 6ab1 dd40 1027 83bf 0020 723d 1049 923f
00000060: 9080 0e40 97dc 5340 509c 8c40 534a af40
00000070: aac1 04c0 15c8 82bf 52ca fc3c 68ae 8a3f
00000080: d3b4 0840 7212 4c40 09b8 8740 c0e3 80c0
00000090: 572b 24c0 5d1e 8dbf d067 b83e 4552 e93f
000000a0: 4b45 5240 baf0 9740 daeb 39c0 1736 d1bf
000000b0: e851 babe 471a 683f 6057 0b40 2fa8 5c40
000000c0: 7ffc 9640 650d 86bf 2c6f 29be 3363 373f
000000d0: 1991 cc3f 4cb8 1e40 0c28 5740 e6cb 8740
000000e0: 2856 6fc0 c0f8 10c0 5b6d 4abf 4808 2f3f
000000f0: 7b1f 0a40 e47c 6840 266d a340 8255 33c0
00000100: 9469 97bf 705f df3e a68c 0340 5e2d 6b40
00000110: 0b67 a940 6737 dd40 8f8e c0bf db6f 24bf
00000120: 9ef5 603e 5575 8a3f f7cb f83f 4c91 3340
00000130: 9dbc 6a40 db1c 6bc0 674a 21c0 e6ef aebf
00000140: eb57 5abe d6b3 703f 6aff 0540 ded1 4f40
00000150: 1541 d8c0 8e40 83c0 1e00 b9bf fd01 9b3f
00000160: 0c82 7740 8dc1 d040 0ae1 1241 791a a6bf
00000170: 8a82 20bf eefd 323d 48e2 363f 584a b13f
00000180: c691 0340 617e 2e40 ac6c 34c0 8c08 d8bf
00000190: 816f 0ebf 1732 133f d769 da3f 529d 3540
000001a0: b805 7e40 2778 ddbf 555d 12bf a535 163f
000001b0: 4f64 df3f e6d6 3940 d2fd 8140 3210 a740
000001c0: 606a 08c0 63c0 76bf e7a2 503e eb88 af3f
000001d0: bd7e 2240 0439 6d40 a5f9 9b40 c598 20c0
000001e0: db8f 7dbf 5f43 073f a605 0340 753a 6440
000001f0: a2b7 a240 0952 d340 e6e3 e8bf 331b 75bf
00000200: dd74 c3bd fc3d 443f 4a75 d03f cb65 1f40
00000210: f190 5640 67b7 34c0 4aba efbf 8a0b 6cbf
00000220: d2af eb3c 88c6 7a3f c817 f73f 2666 3840
00000230: a9a8 e2bf 2e86 06bf f644 383f 0d88 fb3f
00000240: d076 4d40 cc94 8e40 316e b640 2baf eebf
00000250: a013 93bf 54e0 ddbe d88d 903e 027e 7f3f
00000260: 8c5a db3f 0b7b 1b40 2949 29c0 e5fb 5abf
00000270: db2c 6f3f 6755 2e40 cc6f 9040 e4b4 c940
00000280: fe7c 0141 9cf1 08c0 a1a9 9fbf 2ac0 b5be
00000290: 1993 093f 2303 b73f 5d9e 1440 28bb 4d40
000002a0: 7479 5bc0 4a44 03c0 803c 2cbf 2998 343f
000002b0: 345b 0540 5e90 5d40 c4e2 9a40 70c6 3fc0
000002c0: cf93 babf 2654 a63d 545e cf3f b22b 4a40
000002d0: 1e54 9640 6292 c740 4f73 06c1 9d22 bbc0
000002e0: 37bd 52c0 d1d4 3cbf 9da5 e83f 69ed 8b40
000002f0: 6ab1 dd40 1027 83bf 0020 723d 1049 923f
00000300: 9080 0e40 97dc 5340 509c 8c40 534a af40
00000310: aac1 04c0 15c8 82bf 52ca fc3c 68ae 8a3f
00000320: d3b4 0840 7212 4c40 09b8 8740 c0e3 80c0
00000330: 572b 24c0 5d1e 8dbf d067 b83e 4552 e93f
00000340: 4b45 5240 baf0 9740 daeb 39c0 1736 d1bf
00000350: e851 babe 471a 683f 6057 0b40 2fa8 5c40
00000360: 7ffc 9640 650d 86bf 2c6f 29be 3363 373f
00000370: 1991 cc3f 4cb8 1e40 0c28 5740 e6cb 8740
00000380: 2856 6fc0 c0f8 10c0 5b6d 4abf 4808 2f3f
00000390: 7b1f 0a40 e47c 6840 266d a340 8255 33c0
000003a0: 9469 97bf 705f df3e a68c 0340 5e2d 6b40
000003b0: 0b67 a940 6737 dd40 8f8e c0bf db6f 24bf
000003c0: 9ef5 603e 5575 8a3f f7cb f83f 4c91 3340
000003d0: 9dbc 6a40 db1c 6bc0 674a 21c0 e6ef aebf
000003e0: eb57 5abe d6b3 703f 6aff 0540 ded1 4f40
000003f0: 1541 d8c0 8e40 83c0 1e00 b9bf fd01 9b3f
-3.429288 -2.051043 -0.67279816 0.7054468 2.0836916 3.4619365 4.8401814 -2.9964867
-1.4576358 0.08121519 1.6200662 3.158917 4.697768 6.236619 -8.4031515 -5.8479753
-3.2927988 -0.7376223 1.8175541 4.3727307 6.927907 -1.0246296 0.05911255 1.1428547
2.2265968 3.3103387 4.394081 5.477823 -2.0743203 -1.021731 0.030858193 1.0834475
2.1360366 3.1886258 4.241215 -4.0278015 -2.5651453 -1.1024891 0.36016703 1.8228232
3.2854793 4.7481356 -2.9050202 -1.6344632 -0.36390615 0.90665096 2.177208 3.447765
4.7183223 -1.0472838 -0.16546315 0.7163574 1.598178 2.4799986 3.3618193 4.24364
-3.7396336 -2.2651825 -0.79073113 0.6837201 2.1581714 3.6326227 5.107074 -2.802094
-1.1829095 0.436275 2.0554595 3.674644 5.2938285 6.913013 -1.5043505 -0.6423318
0.21968696 1.0817057 1.9437245 2.8057432 3.667762 -3.6736362 -2.5201662 -1.3666961
-0.213226 0.9402441 2.0937142 3.2471843 -6.7579446 -4.10163 -1.4453161 1.2109982
3.8673124 6.523627 9.179941 -1.2976829 -0.62699187 0.043699197 0.7143903 1.3850813
2.0557723 2.7264636 -2.8191328 -1.6877608 -0.5563889 0.57498306 1.706355 2.837727
3.969099 -1.7302293 -0.57173663 0.58675605 1.7452487 2.9037414 4.062234 5.220727
-2.1314926 -0.9638731 0.20374642 1.3713659 2.5389855 3.706605 4.874224 -2.5093243
-0.9904763 0.52837175 2.0472198 3.566068 5.084916 6.603764 -1.8194549 -0.9574463
-0.09543774 0.7665708 1.6285794 2.490588 3.3525965 -2.823694 -1.8728726 -0.9220511
0.028770361 0.97959185 1.9304132 2.8812346 -1.7707721 -0.5254849 0.71980226 1.9650894
3.2103767 4.4556637 5.700951 -1.8647207 -1.1490364 -0.4333521 0.28233218 0.9980165
1.7137008 2.429385 -2.6450903 -0.8554061 0.9342782 2.7239625 4.513647 6.3033314
8.093016 -2.1397467 -1.2473642 -0.35498172 0.5374008 1.4297832 2.3221657 3.214548
-3.429288 -2.051043 -0.67279816 0.7054468 2.0836916 3.4619365 4.8401814 -2.9964867
-1.4576358 0.08121519 1.6200662 3.158917 4.697768 6.236619 -8.4031515 -5.8479753
-3.2927988 -0.7376223 1.8175541 4.3727307 6.927907 -1.0246296 0.05911255 1.1428547
2.2265968 3.3103387 4.394081 5.477823 -2.0743203 -1.021731 0.030858193 1.0834475
2.1360366 3.1886258 4.241215 -4.0278015 -2.5651453 -1.1024891 0.36016703 1.8228232
3.2854793 4.7481356 -2.9050202 -1.6344632 -0.36390615 0.90665096 2.177208 3.447765
4.7183223 -1.0472838 -0.16546315 0.7163574 1.598178 2.4799986 3.3618193 4.24364
-3.7396336 -2.2651825 -0.79073113 0.6837201 2.1581714 3.6326227 5.107074 -2.802094
-1.1829095 0.436275 2.0554595 3.674644 5.2938285 6.913013 -1.5043505 -0.6423318
0.21968696 1.0817057 1.9437245 2.8057432 3.667762 -3.6736362 -2.5201662 -1.3666961
-0.213226 0.9402441 2.0937142 3.2471843 -6.7579446 -4.10163 -1.4453161 1.2109982

act_fun.1.coef f4 [48, 9]
00000000: b4e2 bb40 7f66 f240 795e c7bf 1015 1140
00000010: 610e 70bf a35f 74bf aa70 933f fb06 ccbf
00000020: 5e4a d440 ccdb 62c2 b119 0940 b6d3 efbf
00000030: a6c3 453f 7eb5 3f3f d78c 6fbf b0c1 123f
00000040: d54e 54be 834d 6d40 95c1 8c41 39c2 84bf
00000050: 2b24 033f dd1f 3ebe 6162 843f 78a5 b2bf
00000060: 5f14 8b3f 7d47 70c0 2faf 2042 1a32 023e
00000070: bfbb 1f3e cf5a ecbd 688b b43e d7da 6cbe
00000080: fbf9 16bf d9b5 1a3e badf 29be 719c 3641
00000090: ced0 99c0 3b34 373f 3e50 4abf 0775 2e3f
000000a0: 30a2 91be de28 8ebd ae3f a13d 2754 123d
000000b0: 27ae f5bf abb9 4f40 33ac 9dc0 02fe 713f
000000c0: 5499 b2be 49cc a8be 77e2 a03f cbe7 e9bf
000000d0: 5ebb 1540 ed50 b8c0 ce38 52c3 0d8b 63c1
000000e0: 55b5 db3f bcdb 8abf 6ea3 b83f 37f2 a2bf
000000f0: ef03 903f 1e0b f5bf 3507 9cc1 f9bc 5041
00000100: 62e7 99c0 42df 1b40 b5d1 91be 4b72 afbd
00000110: d0db dc3e 2742 863f ad64 28c1 a66a adc3
00000120: 12b8 b4c1 7398 f1bf 72fd a13f ba1a 0ec0
00000130: 4212 da3f a28e 843e e264 e9bf 0e96 8d40
00000140: 8a01 d9c1 6a6b bfc1 773b 7040 e050 1cc0
00000150: 9910 cd3f cfc0 09bf 5663 a43e 3cbb b5bf
00000160: b37b 22c1 500a 0cc3 2fd7 0540 95c8 9e3e
00000170: 4ab0 813e f89d e6bd 3c47 bcbe 412a 35be
00000180: 26ae 07bc 09b7 c33e d99b a8bf 82d8 aebf
00000190: b951 37c0 89ee 613f 0b8b d33a 2007 e8bf
000001a0: 9b9d 8e3f f842 443f 6714 24c0 4cfc b341
000001b0: e9fc 8d40 2340 a23f f620 b7be f0ba 0c3e
000001c0: 632a 833e e394 14be a3e0 19bd 1622 bc40
000001d0: ca30 ad43 a1fe 38c1 4434 913f 8f19 453f
000001e0: 137f 0cc0 305c 223e 84ce 5e3e d6a3 1a3d
000001f0: 75cd 1dbe 1204 69bc ddfe 4bc2 e75e 8fc1
00000200: 5a38 5e3f 3af7 403e 043f 28bf 8ab2 e1be
00000210: 057d 883d 9659 023f f950 91bf 2f33 96c0
00000220: 8a84 9f3f 7ec7 a5bf f50e e93f 407b 85bf
00000230: 3ac9 b1bf a43b 1a40 5216 dec0 73ca 4342
00000240: 9df1 62c2 706a 2840 6eac a7bf ee14 4e3f
00000250: ee29 043e 191b 70bf 683d 113f f907 1a3f
00000260: 9a0e 8c41 012a 9541 acdc 0dc0 92e5 623f
00000270: c49c f53e 6dd1 5dbf 8555 293f 7a36 bfbf
00000280: e304 8640 ea35 f1c0 c760 0140 9967 58be
00000290: f916 233f de36 4ebf c201 ddbe 8a12 303f
000002a0: 10d4 85be 46aa 86be c08b 2d40 b4c8 61c1
000002b0: 3a22 57bf a22b cc3e 4e0b babf 2eae 5e3e
000002c0: 8ac0 3c3f f0ec 9a3c bc5f 6a3e 668e 44c0
000002d0: edc8 1ac2 3846 2740 6893 50bf bdd6 13bf
000002e0: 9db4 5b3f f906 9abf f771 f53f 29d1 8ac0
000002f0: 83e1 cb41 5d2f a042 69fb 84c0 7e6d d13f
00000300: bab5 03be 520b c8bf 60ff 1040 e65a cbbf
00000310: 6051 1740 8b20 dcc1 d85c d6c1 662b a340
00000320: ce23 19bf 0e62 4ebe 47f3 a9bd 1ceb 6e3d
00000330: 4af2 f43e afee 15c0 1920 8a41 7b54 c041
00000340: 0175 64bf b57b 193c 00e4 f23f 6e06 f8bf
00000350: e8da 88bd 6f6d b03f c2be 3bc0 4d20 af42
00000360: dd5c bec1 de08 04c1 8f01 f33f e78d 17c0
00000370: c923 793f 0e27 6c3f 6dbc 90bf c8b3 cf3f
00000380: eb22 e9c0 9729 6d42 07ec 1ac0 9913 eb3f
00000390: 3526 43bf 3cfd 43bf 51d8 723f 31c1 15bf
000003a0: 1797 5a3e 4b32 5fc0 78a9 79c1 552d 893f
000003b0: 8e06 02bf 272d 3f3e 680e 85bf 1755 b23f
000003c0: c6a1 8bbf 60b5 8140 7d14 27c2 e2d7 d03d
000003d0: a2ee 1bbe bbe1 d73d 53b4 adbe 13d2 693e
000003e0: 8661 153f 9ad0 07be 0048 e93d cbc3 2ec1
000003f0: 6d49 9c3e 1f98 82be b330 553f 0ef9 34bf
5.8714237 7.5750117 -1.5575706 2.2669106 -0.9377194 -0.9545843 1.1518757 -1.593963
6.634078 -56.714645 2.142193 -1.8736484 0.7725166 0.7488631 -0.9357428 0.57326794
-0.20733197 3.707856 17.594522 -1.0371772 0.5122706 -0.18566842 1.0342523 -1.3956747
1.0865592 -3.7543633 40.171078 0.12714425 0.15598963 -0.11540758 0.3526261 -0.23130356
-0.5897519 0.15108432 -0.16589251 11.413194 -4.806739 0.7156407 -0.7902869 0.6814732
-0.28444052 -0.069413885 0.07873474 0.035724785 -1.9193772 3.2457073 -4.9272704 0.9452821
-0.34882605 -0.32968357 1.2569112 -1.8273863 2.339561 -5.7598786 -210.2219 -14.221448
1.7164713 -1.0848308 1.4424875 -1.2730168 1.12512 -1.9144018 -19.50352 13.046136
-4.809495 2.4355016 -0.28480306 -0.085667215 0.43136454 1.0488938 -10.524579 -346.8332
-22.589878 -1.8874649 1.265547 -2.2203813 1.7036822 0.2589007 -1.8233912 4.424567
-27.125751 -23.927448 3.7536294 -2.4424362 1.602069 -0.5380983 0.32107037 -1.4197764
-10.1552 -140.04028 2.0912588 0.31012407 0.2532981 -0.11260599 -0.36773098 -0.176919
-0.008281266 0.38225582 -1.3172561 -1.3659823 -2.864363 0.882546 0.001613946 -1.8127174
1.1141847 0.76664686 -2.5637453 22.498192 4.437123 1.2675823 -0.35767335 0.13743186
0.25618276 -0.14509921 -0.037567746 5.879161 346.38116 -11.562165 1.1344075 0.76992124
-2.195256 0.15855479 0.21758467 0.037753902 -0.15410407 -0.014222162 -50.99889 -17.921339
0.86804736 0.1884431 -0.65721154 -0.44081527 0.066644706 0.5091795 -1.1352836 -4.693748
1.2462323 -1.2951505 1.820769 -1.0428238 -1.3889534 2.4098902 -6.9402246 48.947704
-56.73595 2.6314964 -1.3099496 0.80500686 0.1290662 -0.9379135 0.56734324 0.60168415
17.50713 18.64551 -2.2165937 0.88631546 0.47971165 -0.86647683 0.6614612 -1.49385
4.1880965 -7.5378313 2.0215318 -0.2113327 0.6370693 -0.8055247 -0.43165404 0.6877829
-0.26138353 -0.26301783 2.7116547 -14.1115 -0.840366 0.3987704 -1.45347 0.21746132
0.7373129 0.018911809 0.22888082 -3.0711913 -38.696217 2.6136608 -0.81474924 -0.5774954
0.8582247 -1.2033378 1.9175404 -4.3380322 25.485113 80.09251 -4.1556897 1.6361539
-0.12862292 -1.5628455 2.2655869 -1.5887115 2.3643417 -27.51589 -26.795334 5.0990477
-0.5982026 -0.20154592 -0.082983546 0.058329687 0.47841102 -2.342693 17.265673 24.04125
-0.89241034 0.009367873 1.897583 -1.9376962 -0.06682378 1.3783396 -2.933518 87.56309
-23.795343 -8.252165 1.8984851 -2.368036 0.9732023 0.9224709 -1.1307503 1.622674
-7.2855124 59.290615 -2.420656 1.8365356 -0.76230174 -0.7655828 0.9486132 -0.5849791
0.21346699 -3.4874446 -15.603874 1.0716959 -0.5079125 0.18669568 -1.0395021 1.3932217
-1.0908744 4.0533905 -41.770008 0.101974264 -0.1522775 0.105411015 -0.3392664 0.22834043
0.58351934 -0.13263169 0.11390686 -10.922801 0.3052477 -0.25506684 0.83277434 -0.7069253

act_fun.1.scale_base f4 [48]
00000000: 7df4 b6be f7b3 a13e b10a b2bf 3816 a4be
00000010: f9e6 ba3e 297b 29bf 907f 933e 4689 79be
00000020: d880 e63e 7156 a93e b8da 993e 0204 733f
00000030: e1a4 a53e 374d 983e 2f1c 953e e74e ecbe
00000040: 620c debe 8163 42bf 394d 4d3e 27b5 733f
00000050: a23b 273f 1a9a 3fbb a28c 273f 192d 183f
00000060: e55f 193d 1dfa 33bd 8030 bf3f fea8 353f
00000070: 7e64 57be 39a6 673f d6a8 bdbd bf3f 0a3e
00000080: ac51 38be 06cc 1bbe 4dba 22be 8d1f 1ebf
00000090: c6f5 ea3c e8ac a4be 0da7 ad3e 715e 9c3e
000000a0: 263f fe3b eb1f 803f 7855 75bd 9a01 19bf
000000b0: ae68 abbe 247a 173e 496d d8be 7854 00bf
-0.35733405 0.31582615 -1.3909513 -0.32048202 0.36504343 -0.6620355 0.2880826 -0.24368772
0.45020175 0.33073762 0.30049682 0.9492799 0.32352355 0.2974641 0.29123065 -0.46153948
-0.43368822 -0.7593308 0.2004899 0.9519829 0.6532537 -0.0029236139 0.65448964 0.59443814
0.037444968 -0.0439397 1.4936676 0.70960987 -0.21034428 0.9048801 -0.092607185 0.1350088
-0.17999905 -0.15214548 -0.1589138 -0.6176689 0.028681647 -0.32163167 0.33916512 0.30540803
0.0077589927 1.000974 -0.059895962 -0.5976807 -0.33478302 0.14792687 -0.42270878 -0.5012889

act_fun.1.scale_sp f4 [48]
00000000: 4d68 1540 afcd 0f40 571a e73f 7f87 8c3f
00000010: 8910 a73f 3c45 0240 108a 0140 dbc3 3940
00000020: ad1b 4140 e050 2740 98d8 723f 7cb6 1140
00000030: 70ec 353f bf7b 2240 bf45 c33f efb2 1640
00000040: d9e7 ec3f b1a3 c73f c9d6 c43f f178 da3f
00000050: 8719 ff3f ce6a 7440 4b1a d03f 4cdf 4340
00000060: bdae 1f40 533d 1240 5ee3 e53f 6edd 893f
00000070: 9bed a83f 7ebc e03f 94f8 0240 1522 3340
00000080: 39ca 3840 c23d 1740 5e6a 733f 5de9 1240
00000090: 08e2 543f e701 2140 50b4 c33f 470c 1640
000000a0: d873 eb3f 0160 c93f 3cea c13f 7b27 da3f
000000b0: ecdf fa3f 521a 7140 b3db da3f 90bf 4340
2.334491 2.246929 1.8054913 1.097885 1.3051921 2.0354757 2.0240517 2.902579
3.0173142 2.6143112 0.94861746 2.276763 0.710639 2.5388029 1.525566 2.3546712
1.8508254 1.559683 1.5378047 1.7068158 1.9929665 3.8190188 1.6258024 3.060504
2.4950402 2.284993 1.7960012 1.07707 1.3197511 1.7557523 2.046422 2.7989552
2.8873427 2.3631444 0.9508418 2.2954934 0.83157396 2.515741 1.5289402 2.3444993
1.8394728 1.5732423 1.5149608 1.7043298 1.9599586 3.7672315 1.7098297 3.058567

act_fun.1.mask f4 [48]
00000000: 0000 0000 0000 0000 0000 0000 0000 0000
00000010: 0000 0000 0000 0000 0000 0000 0000 0000
00000020: 0000 0000 0000 0000 0000 0000 0000 0000
00000030: 0000 0000 0000 0000 0000 0000 0000 0000
00000040: 0000 0000 0000 0000 0000 0000 0000 0000
00000050: 0000 0000 0000 0000 0000 0000 0000 0000
00000060: 0000 0000 0000 0000 0000 0000 0000 0000
00000070: 0000 0000 0000 0000 0000 0000 0000 0000
00000080: 0000 0000 0000 0000 0000 0000 0000 0000
00000090: 0000 0000 0000 0000 0000 0000 0000 0000
000000a0: 0000 0000 0000 0000 0000 0000 0000 0000
000000b0: 0000 0000 0000 0000 0000 0000 0000 0000
0.0 0.0 0.0 0.0 0.0 0.0 0.0 0.0
0.0 0.0 0.0 0.0 0.0 0.0 0.0 0.0
0.0 0.0 0.0 0.0 0.0 0.0 0.0 0.0
0.0 0.0 0.0 0.0 0.0 0.0 0.0 0.0
0.0 0.0 0.0 0.0 0.0 0.0 0.0 0.0
0.0 0.0 0.0 0.0 0.0 0.0 0.0 0.0

symbolic_fun.0.mask f4 [24, 8]
00000000: 0000 803f 0000 803f 0000 803f 0000 803f
00000010: 0000 803f 0000 803f 0000 803f 0000 803f
00000020: 0000 803f 0000 803f 0000 803f 0000 803f
00000030: 0000 803f 0000 803f 0000 803f 0000 803f
00000040: 0000 803f 0000 803f 0000 803f 0000 803f
00000050: 0000 803f 0000 803f 0000 803f 0000 803f
00000060: 0000 803f 0000 803f 0000 803f 0000 803f
00000070: 0000 803f 0000 803f 0000 803f 0000 803f
00000080: 0000 803f 0000 803f 0000 803f 0000 803f
00000090: 0000 803f 0000 803f 0000 803f 0000 803f
000000a0: 0000 803f 0000 803f 0000 803f 0000 803f
000000b0: 0000 803f 0000 803f 0000 803f 0000 803f
000000c0: 0000 803f 0000 803f 0000 803f 0000 803f
000000d0: 0000 803f 0000 803f 0000 803f 0000 803f
000000e0: 0000 803f 0000 803f 0000 803f 0000 803f
000000f0: 0000 803f 0000 803f 0000 803f 0000 803f
00000100: 0000 803f 0000 803f 0000 803f 0000 803f
00000110: 0000 803f 0000 803f 0000 803f 0000 803f
00000120: 0000 803f 0000 803f 0000 803f 0000 803f
00000130: 0000 803f 0000 803f 0000 803f 0000 803f
00000140: 0000 803f 0000 803f 0000 803f 0000 803f
00000150: 0000 803f 0000 803f 0000 803f 0000 803f
00000160: 0000 803f 0000 803f 0000 803f 0000 803f
00000170: 0000 803f 0000 803f 0000 803f 0000 803f
00000180: 0000 803f 0000 803f 0000 803f 0000 803f
00000190: 0000 803f 0000 803f 0000 803f 0000 803f
000001a0: 0000 803f 0000 803f 0000 803f 0000 803f
000001b0: 0000 803f 0000 803f 0000 803f 0000 803f
000001c0: 0000 803f 0000 803f 0000 803f 0000 803f
000001d0: 0000 803f 0000 803f 0000 803f 0000 803f
000001e0: 0000 803f 0000 803f 0000 803f 0000 803f
000001f0: 0000 803f 0000 803f 0000 803f 0000 803f
00000200: 0000 803f 0000 803f 0000 803f 0000 803f
00000210: 0000 803f 0000 803f 0000 803f 0000 803f
00000220: 0000 803f 0000 803f 0000 803f 0000 803f
00000230: 0000 803f 0000 803f 0000 803f 0000 803f
00000240: 0000 803f 0000 803f 0000 803f 0000 803f
00000250: 0000 803f 0000 803f 0000 803f 0000 803f
00000260: 0000 803f 0000 803f 0000 803f 0000 803f
00000270: 0000 803f 0000 803f 0000 803f 0000 803f
00000280: 0000 803f 0000 803f 0000 803f 0000 803f
00000290: 0000 803f 0000 803f 0000 803f 0000 803f
000002a0: 0000 803f 0000 803f 0000 803f 0000 803f
000002b0: 0000 803f 0000 803f 0000 803f 0000 803f
000002c0: 0000 803f 0000 803f 0000 803f 0000 803f
000002d0: 0000 803f 0000 803f 0000 803f 0000 803f
000002e0: 0000 803f 0000 803f 0000 803f 0000 803f
000002f0: 0000 803f 0000 803f 0000 803f 0000 803f
1.0 1.0 1.0 1.0 1.0 1.0 1.0 1.0
1.0 1.0 1.0 1.0 1.0 1.0 1.0 1.0
1.0 1.0 1.0 1.0 1.0 1.0 1.0 1.0
1.0 1.0 1.0 1.0 1.0 1.0 1.0 1.0
1.0 1.0 1.0 1.0 1.0 1.0 1.0 1.0
1.0 1.0 1.0 1.0 1.0 1.0 1.0 1.0
1.0 1.0 1.0 1.0 1.0 1.0 1.0 1.0
1.0 1.0 1.0 1.0 1.0 1.0 1.0 1.0
1.0 1.0 1.0 1.0 1.0 1.0 1.0 1.0
1.0 1.0 1.0 1.0 1.0 1.0 1.0 1.0
1.0 1.0 1.0 1.0 1.0 1.0 1.0 1.0
1.0 1.0 1.0 1.0 1.0 1.0 1.0 1.0
1.0 1.0 1.0 1.0 1.0 1.0 1.0 1.0
1.0 1.0 1.0 1.0 1.0 1.0 1.0 1.0
1.0 1.0 1.0 1.0 1.0 1.0 1.0 1.0
1.0 1.0 1.0 1.0 1.0 1.0 1.0 1.0
1.0 1.0 1.0 1.0 1.0 1.0 1.0 1.0
1.0 1.0 1.0 1.0 1.0 1.0 1.0 1.0
1.0 1.0 1.0 1.0 1.0 1.0 1.0 1.0
1.0 1.0 1.0 1.0 1.0 1.0 1.0 1.0
1.0 1.0 1.0 1.0 1.0 1.0 1.0 1.0
1.0 1.0 1.0 1.0 1.0 1.0 1.0 1.0
1.0 1.0 1.0 1.0 1.0 1.0 1.0 1.0
1.0 1.0 1.0 1.0 1.0 1.0 1.0 1.0

symbolic_fun.0.affine f4 [24, 8, 4]
00000000: 81f5 7f3f 2ab7 d1b9 e523 7e3f 61fd b1ba
00000010: 7f30 9840 b610 1841 bf5d 56bd f9c1 d73e
00000020: dca6 7fbf d48e 0dbb f8a6 80bf 5ae0 363b
00000030: fdff 7f3f 0000 002f ac25 8a3f d89b 83bb
00000040: 09b0 0f3f 242c 71bc d6d6 7d40 da0d 153c
00000050: f575 803f d33a 473b 727e 7f3f f518 4439
00000060: c0ff d6bf 86f4 5b3f 584e 2e3e 5af5 2f3f
00000070: 53cb 9ec0 fb5c 19c1 3a39 a941 642c 3fc3
00000080: bd78 46bf 7975 f6c0 93a8 7540 e5e5 a43f
00000090: 755d 7f3f 6173 80bb 043b 803f 633e 983b
000000a0: d15c efc0 82c0 8a40 0b01 07bd 29d3 d83e
000000b0: cdd0 7f3f 1f0b 98bb b37a 803f 1823 5fbc
000000c0: c945 7c3f 7812 833b 1bc6 823f 3ffe 97bb
000000d0: 18a8 ccbf c073 3f40 04cc 0240 2330 0f40
000000e0: 066d 793f aa09 e23f c754 d1c0 c33c 9abe
000000f0: 2631 c8bf cccc ccbf 788b 7843 f46e b544
00000100: e1bd 2a3f 1ba3 09c1 d7c1 7fbf 2bb7 7d3f
00000110: 88ba 13c1 3731 eb3e 9489 d53d 5b61 eebe
00000120: 8841 803f 03cd 12ba 5651 803f 917b 04bc
00000130: f831 3640 f0ba 9e3f 3365 d63d dff4 77be
00000140: 8225 1e3f e4f7 1ac1 bd05 4d41 597e 0241
00000150: b2a6 793f 4e49 9dbc aa83 813f 6482 10bd
00000160: a5b8 3ac0 33e1 4740 53dc 0342 cdab a8bf
00000170: 145c 0c41 462a 0041 d1bf a2c1 9168 0cc4
00000180: 7fb7 803f 82d2 debc 7bb4 803f e903 863a
00000190: be6a 0141 3f4d 9d40 a542 79be 67c4 9ebc
000001a0: a7c6 cbbf 8d62 f940 577a 833d db2c 5bbe
000001b0: 8e75 0d41 ecc9 03bf a609 38c0 c273 733c
000001c0: 78bd 7b3f 42f5 563c 319a 813f f719 533b
000001d0: a010 813f 9650 88bb d80e 7f3f c0fd 463a
000001e0: c646 803f f978 4cbb ba06 7f3f 298c 0b3a
000001f0: 2d32 acbd 677e dd40 45fe edc5 98f6 2c47
00000200: 13c1 7f3f 0f0b 18bb 124b 803f b2aa 2a39
00000210: 0a2e 6640 a3e9 8cc0 014e 643f 81bf 20bc
00000220: f822 21bf 35be 763f 734b 2f41 d573 f0be
00000230: a8ca 7e3f a650 883a a857 7e3f 81d3 8d39
00000240: 0708 3640 4ed1 d140 4f9b 1f3c e202 ebbe
00000250: fc21 7d3f 44c4 943c 3c98 803f faab b8ba
00000260: 2128 7e3f c48e 8dbb 60d6 7e3f da12 243b
00000270: 7246 b43f 26c2 96c0 a248 d540 0429 a3c2
00000280: 69fb 973f cbec 013e 1c7a f43e 9235 ddbd
00000290: 4cc2 cc3e a700 c040 8007 b1c2 e5d4 2a40
000002a0: 1496 1cc1 b706 9ec0 5df7 92be 4b10 a33e
000002b0: f1f8 7d3f 3d0b 183b 2e92 803f 6b32 01ba
000002c0: 52c6 3f3f 57e7 983f 99c5 87bf ed85 a23e
000002d0: b293 813f c6f9 1b3c b9a5 803f 2b3c 2dbc
000002e0: ddea 4940 ed42 33c0 e564 773d d462 84be
000002f0: 641e 993f 1e8a b2c0 0a4f 23c3 53fc f243
00000300: 4121 823f 24a0 89bc 3022 783f d5ae 373c
00000310: 88e0 7f3f a650 88ba d200 7e3f 6d52 c33a
00000320: 2b0e 87bf 9b2e abbf 8b2c cbbf b6ca 173e
00000330: 0b37 803f 70be bcba 7668 803f aa96 ac39
00000340: c62e 913f 4d0b bebf 23a1 4abd d2e2 2abe
00000350: ea39 89bf c7d2 e73f 31e6 1240 0341 c13f
00000360: b640 823f 06b7 51bb 9392 803f bfff 97bc
00000370: 00ae 1c41 bbd5 0f41 e736 e5c1 d0d7 20c4
00000380: 6549 803f c454 c13c 866e 823f b5b8 9dba
00000390: 5e5e 803f 1442 b23a 57c6 733f 75cf 0a3b
000003a0: fdff 7f3f 0000 002f d081 7e3f c7ed 983b
000003b0: 6458 ad40 c021 3440 7dd4 90be 2372 0abf
000003c0: 561c 0e3f e1fc 4d3f fc43 5abd 5cf6 5bbc
000003d0: 3d05 803f 03cd 12ba 020f 813f 1c24 42ba
000003e0: c4a7 803f adef 8abb fc4f 7c3f 274f 6e3c
000003f0: 04ff 1bc0 ba49 2c40 7348 abbe 6519 c3bf
0.99983984 -0.00040000054 0.9927352 -0.0013579541 4.75592 9.50408 -0.052335497 0.42140177
-0.9986398 -0.0021600025 -1.0050955 0.002790472 0.9999998 1.1641532e-10 1.0792747 -0.0040163808
0.56127983 -0.014719997 3.9662375 0.009097541 1.0035998 0.0030400052 0.99802315 0.00018701314
-1.6796799 0.8591999 0.17022073 0.6873375 -4.96232 -9.5852 21.152943 -191.1734
-0.7752798 -7.70184 3.838414 1.2882658 0.9975198 -0.0039200042 1.001801 0.004646109
-7.48008 4.3359995 -0.03295998 0.42348602 0.9992798 -0.0046399976 1.0037445 -0.013619207
0.98543984 0.0040000044 1.0216707 -0.004638463 -1.5988798 2.9914398 2.0437021 2.237313
0.9743198 1.7659199 -6.541599 -0.30124483 -1.5639999 -1.5999999 248.5448 1451.4673
0.6669598 -8.602321 -0.9990515 0.9910762 -9.23304 0.45935985 0.104266316 -0.4655865
1.0019999 -0.0005600007 1.0024822 -0.008086101 2.8467999 1.2400799 0.10468521 -0.24214505
0.6177598 -9.68552 12.813901 8.155847 0.9751998 -0.019199993 1.0118306 -0.0352806
-2.9175198 3.12312 32.96516 -1.317743 8.77248 8.010321 -20.34366 -561.63385
1.0055999 -0.027199987 1.0055078 0.0010224554 8.08856 4.9156795 -0.24341829 -0.019380761
-1.5919999 7.79328 0.06419819 -0.2140383 8.8412 -0.51479983 -2.875589 0.014859142
0.9833598 0.013119997 1.012518 0.0032211521 1.0083199 -0.004159997 0.99632025 0.0007590912
1.0021598 -0.0031200035 0.9961964 0.00053233147 -0.08408008 6.92168 -7615.7837 44278.594
0.9990398 -0.002319995 1.002291 0.00016276052 3.59656 -4.40352 0.89181525 -0.009811283
-0.62943983 0.9638398 10.95592 -0.46963373 0.9952798 0.0010400012 0.993525 0.00027051198
2.84424 6.5568 0.009741618 -0.45900637 0.9887998 0.018159993 1.0046458 -0.0014089339
0.9927998 -0.0043199975 0.9954586 0.002503565 1.4083998 -4.7111998 6.6651163 -81.58011
1.1873599 0.12687986 0.47749412 -0.10801233 0.39991987 6.0000796 -88.51465 2.669244
-9.78664 -4.9383197 -0.28704348 0.31848368 0.9920798 0.0023200058 1.004461 -0.00049284723
0.7491199 1.1945599 -1.0607177 0.31742802 1.0123198 0.00952 1.0050575 -0.010573427
3.15496 -2.8009598 0.060398955 -0.2585665 1.19624 -5.57936 -163.30875 485.97128
1.0166398 -0.016799994 0.96927166 0.011211117 0.9995198 -0.0010400012 0.9922 0.0014901884
-1.0551199 -1.3373598 -1.5872968 0.14823422 1.0016798 -0.0014400017 1.0031879 0.0003291865
1.1342399 -1.4847199 -0.04947008 -0.16688088 -1.0720799 1.8111199 2.2952998 1.5097965
1.0175998 -0.003199996 1.0044731 -0.018554566 9.79248 8.98968 -28.651808 -643.3721
1.0022398 0.02359999 1.0189979 -0.0012033196 1.0028799 0.0013600015 0.9522452 0.0021180783
0.9999998 1.1641532e-10 0.9941683 0.004667017 5.41704 2.81456 -0.28287116 -0.5408041
0.5551199 0.8046399 -0.05328749 -0.013425436 1.0001599 -0.0005600007 1.0082705 -0.00074058934
1.0051198 -0.0042399974 0.98559546 0.014545239 -2.43744 2.692 -0.33453712 -1.5242125

symbolic_fun.1.mask f4 [2, 24]
00000000: 0000 803f 0000 803f 0000 803f 0000 803f
00000010: 0000 803f 0000 803f 0000 803f 0000 803f
00000020: 0000 803f 0000 803f 0000 803f 0000 803f
00000030: 0000 803f 0000 803f 0000 803f 0000 803f
00000040: 0000 803f 0000 803f 0000 803f 0000 803f
00000050: 0000 803f 0000 803f 0000 803f 0000 803f
00000060: 0000 803f 0000 803f 0000 803f 0000 803f
00000070: 0000 803f 0000 803f 0000 803f 0000 803f
00000080: 0000 803f 0000 803f 0000 803f 0000 803f
00000090: 0000 803f 0000 803f 0000 803f 0000 803f
000000a0: 0000 803f 0000 803f 0000 803f 0000 803f
000000b0: 0000 803f 0000 803f 0000 803f 0000 803f
1.0 1.0 1.0 1.0 1.0 1.0 1.0 1.0
1.0 1.0 1.0 1.0 1.0 1.0 1.0 1.0
1.0 1.0 1.0 1.0 1.0 1.0 1.0 1.0
1.0 1.0 1.0 1.0 1.0 1.0 1.0 1.0
1.0 1.0 1.0 1.0 1.0 1.0 1.0 1.0
1.0 1.0 1.0 1.0 1.0 1.0 1.0 1.0
